intel/open-closed-eye-0001/open-closed-eye.onnx (onnx, 46164 bytes, 7 tensors)

conv1.bias f4 [10]
-0.68509895 -0.6358812 -0.4570592 0.08583959 -0.12950218 -0.67558444 -1.4127384 -0.12522084
-1.6219094 0.055965856
00000000: a562 2fbf 1cc9 22bf aa03 eabe abcc af3d
00000010: 389c 04be 1af3 2cbf 9dd4 b4bf e439 00be
00000020: ba9a cfbf 743c 653d

conv1.weight f4 [10, 3, 3, 3]
-0.515577 -0.25234526 0.17245561 -0.74253774 -0.11101473 0.12556434 -0.18102486 -0.5393648
-0.41135406 -0.44390532 0.038316283 0.4825714 -0.5281182 -0.32456505 0.16943873 -0.22563282
-0.52226347 -0.3365444 -0.6648104 -0.010271733 0.40743637 -0.44726068 -0.1111853 0.1951864
-0.099825546 -0.29392618 -0.21280028 0.3398412 0.016184203 0.125268 0.22582191 0.12012929
0.27912182 0.18764511 -0.0798623 0.24808869 0.21974024 0.31296808 0.12442406 0.32610038
0.07446511 0.22826642 0.22985984 0.27918157 0.31853685 0.023489952 0.23927423 0.26077375
0.20284642 0.346901 0.33302954 -0.007857547 -0.011712672 0.013888186 0.28999445 -0.59000057
-0.4840173 -0.2852249 -0.5340947 -0.19854026 -0.3019812 -0.23139529 0.41753677 0.18075779
-0.46352935 -0.25992706 -0.25098234 -0.2758066 -0.08369131 -0.07754047 -0.2989751 0.50530493
0.06775473 -0.52403784 -0.44106182 -0.19462399 -0.42187798 -0.00950575 -0.30272153 -0.3103507
0.26053703 0.28037694 -0.12294563 -0.53370464 0.38490832 0.37765163 -0.01515402 0.16397126
-0.3427201 0.0044092583 0.39658126 -0.20332849 -0.6185247 0.51092726 0.24866305 0.005635749
0.13022584 -0.13688457 -0.30963773 0.22182943 -0.09577187 -0.57516766 0.43288493 0.35998958
-0.1801016 -0.020879524 -0.21875814 -0.050086606 0.5699142 0.4173363 0.10526179 0.33841127
0.035351645 -0.48372293 -0.26792118 -0.5101472 -0.6794129 0.7175377 0.55290747 0.092950486
0.4271625 -0.2196796 -0.19971883 -0.21477541 -0.2954723 -0.76510733 0.39660162 0.5683846
0.12700237 0.32470524 -0.024220241 -0.526277 -0.17589416 -0.28642732 -0.766962 0.32592046
0.048728056 0.1791178 0.107305735 -0.021804947 -0.001809744 -0.44749755 -0.21480331 -0.14308661
0.2735859 0.18066663 0.28628018 -0.078632124 -0.225175 -0.2531442 -0.5137239 -0.157402
-0.03413916 0.22144292 -0.08432914 0.22233388 -0.12958577 -0.054414723 -0.22367081 -0.40136614
-0.42622286 -0.015062005 -0.10698946 0.20260581 0.08883161 -0.40115568 0.060349353 -0.04710931
-0.6443904 -0.5288245 -0.4581085 0.116322204 0.050240584 0.03621762 -0.3613315 0.075125344
-0.080274165 -0.35469723 -0.54883784 -0.31278175 0.011385842 0.10313194 -0.10028792 -0.33031029
-0.16893041 0.0016347398 -0.5984853 -0.23073278 -0.5837462 0.08184802 0.20102455 0.09168078
0.10460961 0.037838273 -0.025220461 -0.029284561 -0.03194471 0.19248867 0.28251687 -0.07184299
-0.057658363 0.10727543 -0.16550873 -0.0329727 -0.012224108 -0.079928435 0.19185999 0.25024524
0.06662585 0.21516775 -0.045714192 -0.14403939 0.05837315 0.16981634 -0.13889489 0.18555218
-0.21008307 -0.50647193 -0.5828007 -0.0052559823 -0.5253972 -0.16792017 0.33075345 -0.15171555
-0.31422958 -0.47795632 -0.7809766 -0.2984871 -0.13653931 -0.30568433 -0.020681396 0.16799977
-0.32543832 -0.32135758 -0.22091445 -0.7438016 -0.581274 -0.2988319 -0.536888 -0.26798427
0.31233498 -0.26796076 -0.27743855 0.023626937 0.023450272 0.5038851 -0.36435118 -0.36839968
0.22137514 -0.36912563 -0.7097794 -0.07583112 0.2838397 0.0009110463 0.69400054 -0.43204996
00000000: dbfc 03bf 6633 81be 3498 303e f416 3ebf
00000010: b15b e3bd f093 003e 955e 39be d013 0abf
00000020: 009d d2be 8f47 e3be 89f1 1c3d 9913 f73e
00000030: c132 07bf 642d a6be 5981 2d3e 4a0c 67be
00000040: 0fb3 05bf 8c4f acbe 0431 2abf c54a 28bc
00000050: 809b d03e 5aff e4be 1eb5 e3bd f2de 473e
00000060: 5671 ccbd 7e7d 96be 51e8 59be aaff ad3e
00000070: bc94 843c 4146 003e dc3d 673e 5806 f63d
00000080: 0ee9 8e3e 0a26 403e d88e a3bd f60a 7e3e
00000090: 9603 613e 5a3d a03e 0bd2 fe3d a1f6 a63e
000000a0: 2a81 983d acbe 693e 6160 6b3e e3f0 8e3e
000000b0: 4317 a33e 006e c03c 4e04 753e 2384 853e
000000c0: f9b6 4f3e 029d b13e d982 aa3e f1bc 00bc
000000d0: 82e6 3fbc 468b 633c 277a 943e 470a 17bf
000000e0: 1ed1 f7be 0009 92be 6eba 08bf 234e 4bbe
000000f0: 489d 9abe e3f2 6cbe 61c7 d53e 9218 393e
00000100: b853 edbe 2915 85be c280 80be 8636 8dbe
00000110: 5966 abbd 8acd 9ebd 4413 99be aa5b 013f
00000120: fec2 8a3d 5827 06bf dbd2 e1be 834b 47be
00000130: 6400 d8be 01be 1bbc 51fe 9abe 49e6 9ebe
00000140: 1c65 853e 918d 8f3e ebca fbbd dea0 08bf
00000150: b412 c53e 8e5b c13e 9148 78bc 15e8 273e
00000160: 0279 afbe 8a7b 903b b30c cb3e 5835 50be
00000170: a257 1ebf 21cc 023f 87a1 7e3e 17ac b83b
00000180: ec59 053e 782b 0cbe d688 9ebe 4127 633e
00000190: 0b24 c4bd 303e 13bf 18a3 dd3e 8e50 b83e
000001a0: 8e6c 38be 890b abbc 2202 60be 9d27 4dbd
000001b0: e6e5 113f 1aad d53e 7e93 d73d 3e44 ad3e
000001c0: e3cc 103d 88aa f7be f72c 89be 0299 02bf
000001d0: 01ee 2dbf 8db0 373f 588b 0d3f d35c be3d
000001e0: 0bb5 da3e b0f3 60be 1883 4cbe 16ee 5bbe
000001f0: 2548 97be 13de 43bf 5e0f cb3e a781 113f
00000200: e90c 023e c43f a63e 8769 c6bc 17ba 06bf
00000210: 991d 34be 9aa6 92be 9f57 44bf 0cdf a63e
00000220: 1297 473d a86a 373e 1cc3 db3d 4aa0 b2bc
00000230: ef34 edba 661e e5be 66f5 5bbe 4c85 12be
00000240: 7313 8c3e ac00 393e 5193 923e e109 a1bd
00000250: 4694 66be 1e9c 81be 6983 03bf fd2d 21be
00000260: 81d5 0bbd efc1 623e c2b4 acbd 7eab 633e
00000270: 22b2 04be f9e1 5ebd f609 65be dd7f cdbe
00000280: e239 dabe a1c6 76bc 4a1d dbbd e677 4f3e
00000290: 59ed b53d 4764 cdbe e230 773d b1f5 40bd
000002a0: c5f6 24bf 0b61 07bf 338d eabe 563a ee3d
000002b0: 12c9 4d3d ed58 143d 7100 b9be 51db 993d
000002c0: c866 a4bd e09a b5be a380 0cbf ee24 a0be
000002d0: af8b 3a3c d736 d33d c163 cdbd 6e1e a9be
000002e0: 18fc 2cbe c444 d63a 5536 19bf 3745 6cbe
000002f0: 6470 15bf ef9f a73d 61d9 4d3e 22c3 bb3d
00000300: 903d d63d 4efc 1a3d 249b cebc 2de6 efbc
00000310: 75d8 02bd c01b 453e 0da6 903e 6b22 93bd
00000320: 2d2b 6cbd 38b3 db3d 1f7b 29be 620e 07bd
00000330: a047 48bc 85b1 a3bd f276 443e 2520 803e
00000340: 2273 883d ef54 5c3e ce3e 3bbd 107f 13be
00000350: af18 6f3d 56e4 2d3e 763a 0ebe 6401 3e3e
00000360: 0420 57be 25a8 01bf 6d32 15bf 603a acbb
00000370: 6e80 06bf 44f3 2bbe 8458 a93e 525b 1bbe
00000380: b3e2 a0be b1b6 f4be 15ee 47bf 4dd3 98be
00000390: f6d0 0bbe a882 9cbe 086c a9bc 2208 2c3e
000003a0: da9f a6be fb88 a4be 6637 62be c869 3ebf
000003b0: 5fce 14bf 7f00 99be 7e71 09bf 3c35 89be
000003c0: 5fea 9f3e 2732 89be 6d0c 8ebe 478d c13c
000003d0: c91a c03c 9dfe 003f 3d8c babe e29e bcbe
000003e0: 2ab0 623e 09fe bcbe 1ab4 35bf 594d 9bbd
000003f0: 7053 913e 48d3 6e3a 05aa 313f a735 ddbe

conv2.bias f4 [20]
0.16574319 0.8602413 0.3122554 -0.54415596 -0.09234554 0.040000428 -0.22996572 0.59667903
-0.054203756 0.09154164 -0.11660276 -0.006723333 0.43883303 0.44477338 -0.09130086 0.20407276
0.0108898785 -0.27209967 -0.42184645 0.20722322
00000000: 95b8 293e c638 5c3f f1df 9f3e ce4d 0bbf
00000010: a91f bdbd 7dd7 233d 227c 6bbe f5bf 183f
00000020: c204 5ebd 2f7a bb3d 6ecd eebd 684f dcbb
00000030: b9ae e03e 56b9 e33e f2fb babd 73f8 503e
00000040: 766b 323c a650 8bbe 42fc d7be 5332 543e

conv2.weight f4 [20, 10, 3, 3]
-0.51796496 -0.3981917 0.17488608 -0.52031565 0.014969417 0.3886709 -0.32727453 0.18478987
0.50496626 0.014122224 0.07795478 -0.011933753 -0.038480286 0.057108026 0.105678804 0.039324053
-0.0945982 0.03816103 -0.45723945 -0.10173036 0.56659037 -0.2870923 0.57617885 0.46541938
-0.19269654 0.58152974 0.30891013 -0.43782142 -0.11256763 0.25849673 -0.17304745 -0.058894042
-0.093022846 -0.16897573 0.12642176 -0.23660946 -0.18151972 0.26968244 0.28423598 -0.0973322
0.20936084 -0.2579379 0.33529988 0.1379102 -0.3339884 0.021284547 0.08568237 0.044353493
-0.067882426 -0.067045614 -0.04746365 -0.049345925 0.06434169 0.07839685 -0.11131142 -0.0753179
-0.10832208 -0.24978018 -0.049274758 -0.23744678 -0.14117864 -0.12953849 -0.055336114 -0.012513685
-0.04684146 -0.102549665 -0.022062076 0.048280515 -0.073299736 -0.050576586 0.058988996 -0.09284813
-0.55928457 -0.15827736 0.14740247 -0.3488413 0.4728522 0.21294168 -0.26468426 0.3051009
0.031663194 -0.45349392 -0.24365953 0.13008477 -0.51099324 -0.17309494 0.10780678 -0.2859267
0.026321175 0.10408941 -0.08221261 -0.29043067 -0.1857833 0.07079186 -0.1449186 0.028080296
0.1888667 0.102807604 0.024587695 -0.062816024 -0.023215031 -0.052931033 -0.08774059 -0.16390288
0.0011931756 -0.016577939 -0.08265836 0.05627478 -0.31536776 -0.46379074 -0.111936726 -0.16926123
-0.1689816 0.21387267 -0.1616651 0.055834822 0.35413745 -0.13411495 -0.08103912 0.1597472
-0.018580839 -0.13215014 -0.061878454 -0.12732992 -0.09860096 -0.087470435 -0.17853071 -0.067551054
0.1778748 -0.1827623 -0.08956852 -0.031209432 -0.15119173 -0.008535087 0.040939342 0.10044418
0.030444652 -0.019727966 0.17034337 0.079719074 0.20644231 0.30630898 0.26245314 0.24041879
-0.11659265 -0.23706317 -0.12771474 0.23597245 0.059365015 0.12217388 0.4535568 0.4279497
0.31298614 0.085786074 -0.035165012 0.05193138 0.06156157 0.06755541 0.023831487 0.003892549
-0.10476811 -0.11076427 -0.30605373 -0.28010884 -0.12913913 -0.1939994 -0.34149858 0.07806063
0.1883016 0.3582548 0.275566 -0.054152805 -0.12646356 -0.08614342 -0.21463896 -0.30174986
-0.12959462 0.019820508 -0.05288975 -0.07826182 -0.124358386 -0.18665023 0.11410387 -0.14372246
-0.24080129 -0.008891177 0.40104365 0.17219555 0.05275296 -0.08716816 -0.091037 -0.1567758
-0.17361201 -0.1949675 -0.052318368 -0.12267289 -0.04040084 -0.18403296 -0.015344335 -0.107460804
0.18544252 -0.31019607 -0.19206844 -0.017048866 0.075329535 0.3164807 0.3488606 0.0483102
0.01595905 0.1744924 -3.9857132e-05 -0.20177731 -0.11955795 -0.09529494 -0.10521394 -0.189608
-0.020348035 -0.14994642 0.047929913 -0.33029878 -0.24345979 -0.10441264 0.14243513 0.03023595
0.1458376 0.066438496 0.028319664 -0.099714614 -0.055380613 -0.0056905784 0.0028180045 -0.0834679
0.049379405 -0.10952175 -0.41180724 -0.32668084 -0.26565176 0.019284358 -0.05621012 -0.10764339
0.3110557 0.3449445 0.02161219 -0.12410561 -0.07849485 -0.033799972 0.0073351217 0.04357447
-0.13385528 0.071684934 0.009184472 0.037768904 -0.056732707 -0.04717202 0.26460502 -0.2602727
00000000: 5a99 04bf c8df cbbe 5615 333e 6833 05bf
00000010: 4942 753c dfff c63e 8790 a7be 8e39 3d3e
00000020: 7845 013f e760 673c c1a6 9f3d ca85 43bc
00000030: 819d 1dbd 1bea 693d 216e d83d 4212 213d
00000040: b3bc c1bd bd4e 1c3d 4a1b eabe 0258 d0bd
00000050: 110c 113f c3fd 92be 7580 133f 734b ee3e
00000060: 3e52 45be 22df 143f 7829 9e3e 212a e0be
00000070: dc89 e6bd af59 843e 5a33 31be e13a 71bd
00000080: c382 bebd f907 2dbe b574 013e c049 72be
00000090: 4ee0 39be d113 8a3e 6187 913e 1b56 c7bd
000000a0: b062 563e 7010 84be 6dac ab3e 5538 0d3e
000000b0: 8700 abbe ee5c ae3c 3d7a af3d 02ac 353d
000000c0: f105 8bbd 364f 89bd 3f69 42bd f41e 4abd
000000d0: 93c5 833d 878e a03d 3ef7 e3bd 4540 9abd
000000e0: f7d7 ddbd 60c6 7fbe 54d4 49bd 4025 73be
000000f0: 2291 10be bda5 04be 1fa8 62bd 3306 4dbc
00000100: d5dc 3fbd 8f05 d2bd 87bb b4bc cac1 453d
00000110: 2c1e 96bd 6529 4fbd 729e 713d 2927 bebd
00000120: 462d 0fbf 7613 22be acf0 163e 549b b2be
00000130: af19 f23e 620d 5a3e b284 87be 2f36 9c3e
00000140: 44b1 013d 5b30 e8be e281 79be f134 053e
00000150: 74d0 02bf cd3f 31be cdc9 dc3d fc64 92be
00000160: 819f d73c d42c d53d 165f a8bd 54b3 94be
00000170: fa3d 3ebe 53fb 903d 8b65 14be a608 e63c
00000180: 4666 413e cb8c d23d 226c c93c b0a5 80bd
00000190: 732d bebc 36ce 58bd 57b1 b3bd 28d6 27be
000001a0: 5464 9c3a 75ce 87bc c948 a9bd 6280 663d
000001b0: e277 a1be fb75 edbe 153f e5bd d152 2dbe
000001c0: 8309 2dbe 7001 5b3e 898b 25be 0eb3 643d
000001d0: 8151 b53e 6e55 09be d7f7 a5bd c594 233e
000001e0: d836 98bc 5e52 07be 4374 7dbd c662 02be
000001f0: 4def c9bd b323 b3bd c1d0 36be 3558 8abd
00000200: d024 363e 0a26 3bbe b36f b7bd ecaa ffbc
00000210: 01d2 1abe c0d6 0bbc 03b0 273d aeb5 cd3d
00000220: 1067 f93c 8b9c a1bc 7e6e 2e3e c143 a33d
00000230: 9d65 533e 88d4 9c3e 4260 863e 5830 763e
00000240: 21c8 eebd b0c0 72be a7c7 02be c3a2 713e
00000250: bb28 733d 4d36 fa3d 9938 e83e 391c db3e
00000260: b83f a03e 9cb0 af3d 3009 10bd 00b6 543d
00000270: fc27 7c3d 7e5a 8a3d 403a c33c 231a 7f3b
00000280: aa90 d6bd 61d8 e2bd 13b3 9cbe 6d6a 8fbe
00000290: 0c3d 04be c7a7 46be e7d8 aebe 40de 9f3d
000002a0: 22d2 403e 2c6d b73e fd16 8d3e 55cf 5dbd
000002b0: aa7f 01be f66b b0bd 51ca 5bbe f57e 9abe
000002c0: 74b4 04be 9e5e a23c eca2 58bd bc47 a0bd
000002d0: 9caf febd 3d21 3fbe 4aaf e93d fb2b 13be
000002e0: 9d94 76be 4dac 11bc 9855 cd3e 0854 303e
000002f0: 7d13 583d 3885 b2bd 9b71 babd d689 20be
00000300: 59c7 31be 8fa5 47be c94b 56bd ed3b fbbd
00000310: 5a7b 25bd 2373 3cbe ce66 7bbc 6914 dcbd
00000320: a5e4 3d3e 05d2 9ebe 97ad 44be 10aa 8bbc
00000330: 5f46 9a3d c209 a23e db9d b23e ebe0 453d
00000340: 8ebc 823c 23ae 323e 452c 27b8 b69e 4ebe
00000350: ccda f4bd fe29 c3bd 687a d7bd 9928 42be
00000360: ecb0 a6bc 8e8b 19be 2852 443d ec1c a9be
00000370: 864d 79be 4bd6 d5bd 84da 113e 62b1 f73c
00000380: 7456 153e e810 883d a4fe e73c 2d37 ccbd
00000390: c8d6 62bd 0878 babb 45ae 383b 38f1 aabd
000003a0: 0f42 4a3d f04c e0bd 66d8 d2be b642 a7be
000003b0: 8203 88be 3bfa 9d3c 953c 66bd 2374 dcbd
000003c0: b142 9f3e 919c b03e 0c0c b13c 152b febd
000003d0: e8c1 a0bd d771 0abd 765b f03b 257b 323d
000003e0: 5c11 09be 8dcf 923d 787a 163c 91b3 1a3d
000003f0: 8e60 68bd 7337 41bd 4f7a 873e 7742 85be

conv3.bias f4 [50]
-0.054986257 -0.050366033 0.09271559 0.009698773 0.0681725 0.10230673 0.095839046 0.16507857
0.0048360713 0.3103343 0.04722967 0.11110593 0.008902465 0.06981103 -0.0545139 0.07122513
-0.15056843 0.08948035 -0.0071603125 0.26268056 -0.18260321 0.018750055 -0.22857524 0.07329881
0.106701285 -0.05066454 0.004134563 0.26457754 0.004993525 -0.11905254 -0.04564876 -0.10674692
-0.043249786 0.2203887 0.19621947 0.29265898 -0.25441876 -0.13243864 -0.013879305 -0.33018866
0.15254743 0.23315969 -0.1586083 -0.039400548 -0.00013591361 0.14941896 -0.23888816 0.007813166
0.027002973 0.016904857
00000000: 4539 61bd 9d4c 4ebd ace1 bd3d 9ae7 1e3c
00000010: 069e 8b3d 3186 d13d 4347 c43d 5b0a 293e
00000020: e877 9e3b 23e4 9e3e e673 413d 818b e33d
00000030: a5db 113c 16f9 8e3d f849 5fbd 7bde 913d
00000040: 9c2e 1abe 7941 b73d 0ea1 eabb 117e 863e
00000050: 56fc 3abe b799 993c a10f 6abe b01d 963d
00000060: 3486 da3d 9f85 4fbd 3a7b 873b b576 873e
00000070: b9a0 a33b d1d1 f3bd 32fa 3abd 219e dabd
00000080: b026 31bd 93ad 613e c2ed 483e 66d7 953e
00000090: 2d43 82be ff9d 07be 0666 63bc 7d0e a9be
000000a0: 6535 1c3e 6ac1 6e3e 376a 22be 7862 21bd
000000b0: 0884 0eb9 4901 193e 199f 74be cb02 003c
000000c0: 5735 dd3c 0e7c 8a3c

conv3.weight f4 [50, 20, 3, 3]
0.02460176 0.08321555 0.067373306 -0.06843334 -0.022241542 -0.07960188 0.096335456 0.20961848
-0.074879736 0.074028336 -0.055777963 0.04477611 0.08585195 -0.08436968 -0.0048596575 0.15379177
0.032761108 -0.028458618 0.06210857 0.0077229794 0.06838089 -0.00035941557 -0.011287003 0.028275456
-0.025000976 -0.017227026 -0.0015680696 -0.042151496 0.038572457 0.062439684 -0.0075451033 0.070739165
-0.0011956294 0.07625834 0.098517574 -0.06539885 0.065251134 -0.0068107047 0.03076949 0.029771093
-0.029023344 -0.06353031 -0.038642615 0.049402345 -0.019415252 -0.05896738 -0.014055271 0.107401215
0.017872786 0.03210678 0.045254417 0.06351745 -0.10539022 -0.12290903 -0.017338032 -0.08716274
0.0059390143 0.059522435 0.009893195 0.07703543 0.10510337 -0.019694727 -0.034329776 0.028353868
-0.100729115 -0.09203839 -0.1173866 -0.04231654 0.015115553 0.049747244 0.10373534 0.087974206
0.17765692 -0.006014193 0.064548776 -0.09890582 -0.056690622 -0.082752585 -0.011899671 0.078793086
0.009614401 0.04768227 -0.003901995 -0.013129874 -0.062561 0.005539745 0.01087755 -0.10578826
-0.078422464 0.08304367 0.057990137 -0.039564706 0.017020507 -0.04291672 0.016662464 -0.010425526
-0.026857482 -0.016276827 -0.0065257302 -0.033390433 -0.065608 0.045015514 -0.0043651517 -0.0020496936
-0.024605867 0.03553077 -0.011078746 0.07356058 0.007458703 0.05300476 0.06998492 0.09926388
0.006859822 0.026032366 0.0855312 0.12365722 -0.03630476 -0.009792375 0.14348134 0.14177936
-0.073231086 0.02922545 0.12592082 -0.08005588 -0.014404376 0.029407874 -0.0020243612 -0.026034815
-0.034614585 0.014389127 -0.065769464 -0.07016848 -0.010534321 0.01736165 -0.009898055 0.038866434
0.0073658996 -0.099954195 0.05477157 0.06634823 0.1358861 -0.03506678 0.0007411358 0.11252252
0.0052556004 -0.049809128 0.0029805037 0.054058485 -0.060069848 0.086165845 -0.03763693 -0.022101713
-0.03246405 -0.07333743 0.05255002 -0.03341682 -0.036682006 0.05840557 0.037356697 0.0011111811
0.16312629 -0.011226552 0.055458535 -0.047791768 0.1027511 0.060740046 0.0043481006 0.15047476
0.0062492318 -0.058668032 0.051775306 -0.09053018 0.0118509885 -0.020975176 0.08439499 0.016510326
-0.051736124 0.042566385 -0.10183111 0.05530112 -0.03621764 0.066368066 0.052286327 0.044524744
0.02876704 -0.08170077 0.04681836 0.15996344 -0.02201962 -0.037296943 0.050362375 0.07801836
0.057828218 -0.05566263 0.011241589 0.091105975 -0.03419376 0.09556109 -0.03560197 -0.012828815
0.044422552 0.09673147 0.0121823475 0.05000258 -0.047968563 -0.05542062 0.050858203 0.042296298
0.0149014965 0.07374472 0.08181412 -0.0017562546 -0.05434334 -0.014745711 0.013129548 -0.059482798
-0.04624261 -0.005788716 -0.04097099 0.045025356 -0.018286005 -0.06390454 -0.06430283 0.07979767
-0.028695332 -0.09065238 -0.015193407 0.092223115 0.038636066 0.008962547 -0.024551481 0.08554599
-0.020650083 -0.13689163 0.0202109 -0.11844524 -0.06958203 0.044734936 -0.08579593 0.054340627
0.079706036 -0.014414999 0.0110534895 -0.07605855 -0.021685138 -0.00054478523 -0.09267964 0.034175184
0.040687475 0.0037550435 0.058477104 0.049103398 0.12942405 0.016175479 -0.037032597 -0.11399473
00000000: a189 c93c ea6c aa3d 04fb 893d c726 8cbd
00000010: e533 b6bc 4f06 a3bd 864b c53d 3aa6 563e
00000020: 8c5a 99bd 2b9c 973d 6f77 64bd 2867 373d
00000030: 26d3 af3d 03ca acbd c33d 9fbb 977b 1d3e
00000040: 8330 063d 0c22 e9bc 8e65 7e3d 0c11 fd3b
00000050: 480b 8c3d f16f bcb9 1fed 38bc eea1 e73c
00000060: d9ce ccbc b11f 8dbc af87 cdba 0ca7 2cbd
00000070: 27fe 1d3d c1c0 7f3d ea3c f7bb b2df 903d
00000080: aab6 9cba 552d 9c3d 95c3 c93d d5ef 85bd
00000090: 63a2 853d 552c dfbb 4c10 fc3c 82e2 f33c
000000a0: 5dc2 edbc 2e1c 82bd b847 1ebd 1d5a 4a3d
000000b0: bc0c 9fbc c887 71bd 1448 66bc 2bf5 db3d
000000c0: f369 923c 6682 033d b25c 393d 7015 823d
000000d0: d4d6 d7bd bbb7 fbbd 7d08 8ebc 6182 b2bd
000000e0: 109c c23b cccd 733d 1117 223c c0c4 9d3d
000000f0: 7040 d73d d656 a1bc 619d 0cbd 5f46 e83c
00000100: 114b cebd a07e bcbd 6368 f0bd 1c54 2dbd
00000110: 39a7 773c c4c3 4b3d 3273 d43d d22b b43d
00000120: b2eb 353e b512 c5bb 2632 843d 228f cabd
00000130: 6d34 68bd 307a a9bd d6f6 42bc 455e a13d
00000140: b885 1d3c 7c4e 433d 9db8 7fbb af1e 57bc
00000150: fb1f 80bd c086 b53b c037 323c 84a7 d8bd
00000160: f59b a0bd cd12 aa3d 1187 6d3d 9a0e 22bd
00000170: 976e 8b3c 71c9 2fbd b87f 883c d3cf 2abc
00000180: 3904 dcbc fb56 85bc cbd5 d5bb 68c4 08bd
00000190: 7d5d 86bd 3062 383d 8c09 8fbb 2754 06bb
000001a0: 3e92 c9bc b688 113d a183 35bc eea6 963d
000001b0: 2368 f43b 851b 593d 4154 8f3d dc4a cb3d
000001c0: 5cc8 e03b d441 d53c fb2a af3d ff3f fd3d
000001d0: 4db4 14bd 3370 20bc c6ec 123e 9c2e 113e
000001e0: 2efa 95bd 366a ef3c 63f1 003e 56f4 a3bd
000001f0: 5500 6cbc c8e8 f03c 25ab 04bb f746 d5bc
00000200: 06c8 0dbd 5fc0 6b3c 24b2 86bd 7eb4 8fbd
00000210: 2598 2cbc 053a 8e3c 742b 22bc 6932 1f3d
00000220: a55d f13b c9b4 ccbd 2758 603d 95e1 873d
00000230: ba25 0b3e 2fa2 0fbd c848 423a 3572 e63d
00000240: 2c37 ac3b a804 4cbd 8e54 433b 6e6c 5d3d
00000250: cd0b 76bd b877 b03d 2e29 1abd a70e b5bc
00000260: 06f9 04bd ef31 96bd b13e 573d 13e0 08bd
00000270: df3f 16bd ae3a 6f3d 5603 193d 0da5 913a
00000280: 940a 273e 92ef 37bc 7d28 633d 4dc1 43bd
00000290: 2b6f d23d 8eca 783d 837a 8e3b 0e16 1a3e
000002a0: 5bc6 cc3b e44d 70bd 5812 543d e367 b9bd
000002b0: a62a 423c 22d4 abbc 48d7 ac3d aa40 873c
000002c0: 42e9 53bd 175a 2e3d d48c d0bd 6d83 623d
000002d0: f358 14bd fbeb 873d 302a 563d 945f 363d
000002e0: dba8 eb3c bc52 a7bd 9cc4 3f3d 75cd 233e
000002f0: 7d62 b4bc aec4 18bd c748 4e3d 17c8 9f3d
00000300: 48dd 6c3d 7ffe 63bd a42e 383c c595 ba3d
00000310: c20e 0cbd 88b5 c33d 5fd3 11bd f32f 52bc
00000320: 6cf4 353d 261b c63d 7898 473c 81cf 4c3d
00000330: af7a 44bd bb00 63bd b150 503d e23e 2d3d
00000340: 6825 743c 7907 973d 298e a73d 2032 e6ba
00000350: 1f97 5ebd ff97 71bc 511d 573c 3ca4 73bd
00000360: e468 3dbd 45af bdbb 32d1 27bd 826c 383d
00000370: 88cc 95bc 62e0 82bd 34b1 83bd f66c a33d
00000380: 7912 ebbc f4a7 b9bd c5ed 78bc 79df bc3d
00000390: da40 1e3d a6d7 123c 3020 c9bc bc32 af3d
000003a0: 5d2a a9bc 522d 0cbe 5491 a53c 6b93 f2bd
000003b0: 0681 8ebd fb3b 373d c7b5 afbd 4794 5e3d
000003c0: eb3c a33d e32c 6cbc b219 353c 96c4 9bbd
000003d0: 08a5 b1bc ebcf 0eba d3ce bdbd 47fb 0b3d
000003e0: e9a7 263d 2d17 763b b085 6f3d a520 493d
000003f0: bd87 043e 7082 843c 7eaf 17bd 1276 e9bd

conv4.weight f4 [2, 50, 1, 1]
-0.52820456 -0.41576946 -0.4427266 -0.06999884 -0.109159715 0.6957824 -0.41708407 0.4920935
0.17589004 0.73743963 0.2874716 0.10629766 0.4850349 -0.8012194 0.26691973 -0.18103449
0.047255814 -0.04235407 -0.037864394 0.7084673 -0.6849895 0.51529545 -0.046242084 0.07705892
-0.21802573 -0.99239516 -0.75886446 0.37191653 -0.5651148 -0.04887097 -0.07202187 -0.6944088
0.6526472 0.5551623 -0.045680195 0.7187377 -0.78475964 -0.35876778 0.2328358 -1.1476579
0.43459377 0.9951113 -0.80023265 0.09874569 -0.70462006 1.1026435 -0.119146876 -0.019396277
0.23665597 0.60256094 -0.3320757 -0.24213715 -0.99372053 -0.13676001 -0.51444596 -0.008871875
-0.71126735 -0.07400085 0.15697531 -0.44631258 -0.04726476 -0.25663105 0.08281536 -0.7715643
0.4478748 -0.529967 0.4994349 -0.2700409 0.11008097 -0.61115444 0.32589975 0.4235289
0.6241441 -0.30851692 -0.63892996 -0.7255147 -0.4735756 -0.67167914 -0.44288477 0.57970834
0.034522686 -0.36206016 0.86997116 -0.29482207 -0.8272874 -0.60203505 0.29193747 0.5889434
0.42186487 0.3406931 -0.49222502 -0.25254673 -0.37574542 0.49431676 -0.5712257 0.6172236
0.83004564 0.2715599 0.42178008 0.34468642
00000000: 6a38 07bf bcdf d4be 10ad e2be 8d5b 8fbd
00000010: 218f dfbd cc1e 323f 0b8c d5be aef3 fb3e
00000020: 851c 343e d8c8 3c3f 7a2f 933e 96b2 d93d
00000030: 7f56 f83e b71c 4dbf b4a9 883e 1b61 39be
00000040: 508f 413d 767b 2dbd b217 1bbd 1d5e 353f
00000050: 795b 2fbf 67ea 033f 5768 3dbd 11d1 9d3d
00000060: 2342 5fbe 9c0d 7ebf f144 42bf d86b be3e
00000070: 5dab 10bf ed2c 48bd 3480 93bd c6c4 31bf
00000080: e313 273f 1e1f 0e3f 281b 3bbd 32ff 373f
00000090: 02e6 48bf 69b0 b7be 826c 6e3e 74e6 92bf
000000a0: 1383 de3e 9dbf 7e3f 0cdc 4cbf 2e3b ca3d
000000b0: fb61 34bf 6c23 8d3f 4703 f4bd f1e4 9ebc
000000c0: f155 723e 6f41 1a3f d305 aabe cdf2 77be
000000d0: 7864 7ebf d10a 0cbe bbb2 03bf 575b 11bc
000000e0: 9e15 36bf c28d 97bd 23be 203e 1583 e4be
000000f0: b198 41bd 2565 83be 199b a93d 3d85 45bf
00000100: d94f e53e ebab 07bf eeb5 ff3e cd42 8abe
00000110: 2272 e13d 9e74 1cbf 55dc a63e c8d8 d83e
00000120: e8c7 1f3f eef5 9dbe ea90 23bf 55bb 39bf
00000130: 8078 f2be 2af3 2bbf cbc1 e2be c467 143f
00000140: a967 0d3d f35f b9be 6eb6 5e3f ebf2 96be
00000150: 1bc9 53bf f81e 1abf d478 953e ffc4 163f
00000160: acfe d73e 536f ae3e eb04 fcbe ce4d 81be
00000170: b461 c0be 1617 fd3e d93b 12bf 5e02 1e3f
00000180: df7d 543f e609 8b3e 8ff3 d73e bd7a b03e
